{"Layers": [{
  "Name": "Reformatting CopyNode for Input Tensor 0 to conv_1 + batchnorm_1",
  "LayerType": "Reformat",
  "Inputs": [
  {
    "Name": "input",
    "Location": "Device",
    "Dimensions": [1,3,640,640],
    "Format/Datatype": "Row major linear FP32"
  }],
  "Outputs": [
  {
    "Name": "Reformatted Input Tensor 0 to conv_1 + batchnorm_1",
    "Location": "Device",
    "Dimensions": [1,3,640,640],
    "Format/Datatype": "Channel major FP32 format"
  }],
  "ParameterType": "Reformat",
  "Origin": "REFORMAT",
  "TacticValue": "0x00000000000003ea",
  "StreamId": 0,
  "Metadata": ""
},{
  "Name": "conv_1 + batchnorm_1",
  "LayerType": "CaskConvolution",
  "Inputs": [
  {
    "Name": "Reformatted Input Tensor 0 to conv_1 + batchnorm_1",
    "Location": "Device",
    "Dimensions": [1,3,640,640],
    "Format/Datatype": "Channel major FP32 format"
  }],
  "Outputs": [
  {
    "Name": "(Unnamed Layer* 1) [Scale]_output",
    "Location": "Device",
    "Dimensions": [1,32,320,320],
    "Format/Datatype": "Channel major FP32 format"
  }],
  "ParameterType": "Convolution",
  "Kernel": [3,3],
  "PaddingMode": "kEXPLICIT_ROUND_DOWN",
  "PrePadding": [1,1],
  "PostPadding": [1,1],
  "Stride": [2,2],
  "Dilation": [1,1],
  "OutMaps": 32,
  "Groups": 1,
  "Weights": {"Type": "Float", "Count": 864},
  "Bias": {"Type": "Float", "Count": 32},
  "HasSparseWeights": 0,
  "HasDynamicFilter": 0,
  "HasDynamicBias": 0,
  "HasResidual": 0,
  "ConvXAsActInputIdx": -1,
  "BiasAsActInputIdx": -1,
  "ResAsActInputIdx": -1,
  "Activation": "NONE",
  "HasBias": 1,
  "HasReLU": 0,
  "TacticName": "sm80_xmma_fprop_implicit_gemm_indexed_wo_smem_f32f32_tf32f32_f32_nhwckrsc_nhwc_tilesize128x32x16_stage1_warpsize4x1x1_g1_tensor16x8x8_aligna4_alignc4",
  "TacticValue": "0xf231cca3335919a4",
  "StreamId": 0,
  "Metadata": ""
},{
  "Name": "Reformatting CopyNode for Input Tensor 0 to PWN(leaky_1)",
  "LayerType": "NoOp",
  "Inputs": [
  {
    "Name": "(Unnamed Layer* 1) [Scale]_output",
    "Location": "Device",
    "Dimensions": [1,32,320,320],
    "Format/Datatype": "Channel major FP32 format"
  }],
  "Outputs": [
  {
    "Name": "Reformatted Input Tensor 0 to PWN(leaky_1)",
    "Location": "Device",
    "Dimensions": [1,32,320,320],
    "Format/Datatype": "Channel major FP32 format where channel % 4 == 0"
  }],
  "TacticValue": "0x0000000000000000",
  "StreamId": 0,
  "Metadata": ""
},{
  "Name": "PWN(leaky_1)",
  "LayerType": "PointWiseV2",
  "Inputs": [
  {
    "Name": "Reformatted Input Tensor 0 to PWN(leaky_1)",
    "Location": "Device",
    "Dimensions": [1,32,320,320],
    "Format/Datatype": "Channel major FP32 format where channel % 4 == 0"
  }],
  "Outputs": [
  {
    "Name": "(Unnamed Layer* 2) [Activation]_output",
    "Location": "Device",
    "Dimensions": [1,32,320,320],
    "Format/Datatype": "Channel major FP32 format where channel % 4 == 0"
  }],
  "ParameterType": "PointWise",
  "ParameterSubType": "PointWiseExpression",
  "NbInputArgs": 1,
  "InputArgs": ["arg0"],
  "NbOutputVars": 1,
  "OutputVars": ["var2"],
  "NbParams": 0,
  "Params": [],
  "NbLiterals": 4,
  "Literals": ["0.000000e+00f", "1.000000e+00f", "1.000000e-01f", "0.000000e+00f"],
  "NbOperations": 3,
  "Operations": ["auto const var0 = pwgen::iMul(arg0, literal2);", "auto const var1 = pwgen::iCmpLT(arg0, literal0);", "auto const var2 = pwgen::iSelect(var1, var0, arg0);"],
  "TacticValue": "0x0000000000000005",
  "StreamId": 0,
  "Metadata": ""
},{
  "Name": "conv_2 + batchnorm_2",
  "LayerType": "CaskConvolution",
  "Inputs": [
  {
    "Name": "(Unnamed Layer* 2) [Activation]_output",
    "Location": "Device",
    "Dimensions": [1,32,320,320],
    "Format/Datatype": "Channel major FP32 format where channel % 4 == 0"
  }],
  "Outputs": [
  {
    "Name": "(Unnamed Layer* 4) [Scale]_output",
    "Location": "Device",
    "Dimensions": [1,64,160,160],
    "Format/Datatype": "Channel major FP32 format where channel % 4 == 0"
  }],
  "ParameterType": "Convolution",
  "Kernel": [3,3],
  "PaddingMode": "kEXPLICIT_ROUND_DOWN",
  "PrePadding": [1,1],
  "PostPadding": [1,1],
  "Stride": [2,2],
  "Dilation": [1,1],
  "OutMaps": 64,
  "Groups": 1,
  "Weights": {"Type": "Float", "Count": 18432},
  "Bias": {"Type": "Float", "Count": 64},
  "HasSparseWeights": 0,
  "HasDynamicFilter": 0,
  "HasDynamicBias": 0,
  "HasResidual": 0,
  "ConvXAsActInputIdx": -1,
  "BiasAsActInputIdx": -1,
  "ResAsActInputIdx": -1,
  "Activation": "NONE",
  "HasBias": 1,
  "HasReLU": 0,
  "TacticName": "sm80_xmma_fprop_implicit_gemm_indexed_wo_smem_f32f32_tf32f32_f32_nhwckrsc_nhwc_tilesize128x32x16_stage1_warpsize4x1x1_g1_tensor16x8x8",
  "TacticValue": "0x9cb304e2edbc1221",
  "StreamId": 0,
  "Metadata": ""
},{
  "Name": "PWN(leaky_2)",
  "LayerType": "PointWiseV2",
  "Inputs": [
  {
    "Name": "(Unnamed Layer* 4) [Scale]_output",
    "Location": "Device",
    "Dimensions": [1,64,160,160],
    "Format/Datatype": "Channel major FP32 format where channel % 4 == 0"
  }],
  "Outputs": [
  {
    "Name": "(Unnamed Layer* 5) [Activation]_output",
    "Location": "Device",
    "Dimensions": [1,64,160,160],
    "Format/Datatype": "Channel major FP32 format where channel % 4 == 0"
  }],
  "ParameterType": "PointWise",
  "ParameterSubType": "PointWiseExpression",
  "NbInputArgs": 1,
  "InputArgs": ["arg0"],
  "NbOutputVars": 1,
  "OutputVars": ["var2"],
  "NbParams": 0,
  "Params": [],
  "NbLiterals": 4,
  "Literals": ["0.000000e+00f", "1.000000e+00f", "1.000000e-01f", "0.000000e+00f"],
  "NbOperations": 3,
  "Operations": ["auto const var0 = pwgen::iMul(arg0, literal2);", "auto const var1 = pwgen::iCmpLT(arg0, literal0);", "auto const var2 = pwgen::iSelect(var1, var0, arg0);"],
  "TacticValue": "0x000000000000000f",
  "StreamId": 0,
  "Metadata": ""
},{
  "Name": "conv_3 + batchnorm_3",
  "LayerType": "CaskConvolution",
  "Inputs": [
  {
    "Name": "(Unnamed Layer* 5) [Activation]_output",
    "Location": "Device",
    "Dimensions": [1,64,160,160],
    "Format/Datatype": "Channel major FP32 format where channel % 4 == 0"
  }],
  "Outputs": [
  {
    "Name": "(Unnamed Layer* 7) [Scale]_output",
    "Location": "Device",
    "Dimensions": [1,64,160,160],
    "Format/Datatype": "Channel major FP32 format where channel % 4 == 0"
  }],
  "ParameterType": "Convolution",
  "Kernel": [3,3],
  "PaddingMode": "kEXPLICIT_ROUND_DOWN",
  "PrePadding": [1,1],
  "PostPadding": [1,1],
  "Stride": [1,1],
  "Dilation": [1,1],
  "OutMaps": 64,
  "Groups": 1,
  "Weights": {"Type": "Float", "Count": 36864},
  "Bias": {"Type": "Float", "Count": 64},
  "HasSparseWeights": 0,
  "HasDynamicFilter": 0,
  "HasDynamicBias": 0,
  "HasResidual": 0,
  "ConvXAsActInputIdx": -1,
  "BiasAsActInputIdx": -1,
  "ResAsActInputIdx": -1,
  "Activation": "NONE",
  "HasBias": 1,
  "HasReLU": 0,
  "TacticName": "sm80_xmma_fprop_implicit_gemm_indexed_wo_smem_f32f32_tf32f32_f32_nhwckrsc_nhwc_tilesize128x32x64_stage1_warpsize4x1x1_g1_tensor16x8x8_alignc8",
  "TacticValue": "0x3a8712b17741b582",
  "StreamId": 0,
  "Metadata": ""
},{
  "Name": "PWN(leaky_3)",
  "LayerType": "PointWiseV2",
  "Inputs": [
  {
    "Name": "(Unnamed Layer* 7) [Scale]_output",
    "Location": "Device",
    "Dimensions": [1,64,160,160],
    "Format/Datatype": "Channel major FP32 format where channel % 4 == 0"
  }],
  "Outputs": [
  {
    "Name": "(Unnamed Layer* 8) [Activation]_output",
    "Location": "Device",
    "Dimensions": [1,64,160,160],
    "Format/Datatype": "Channel major FP32 format where channel % 4 == 0"
  }],
  "ParameterType": "PointWise",
  "ParameterSubType": "PointWiseExpression",
  "NbInputArgs": 1,
  "InputArgs": ["arg0"],
  "NbOutputVars": 1,
  "OutputVars": ["var2"],
  "NbParams": 0,
  "Params": [],
  "NbLiterals": 4,
  "Literals": ["0.000000e+00f", "1.000000e+00f", "1.000000e-01f", "0.000000e+00f"],
  "NbOperations": 3,
  "Operations": ["auto const var0 = pwgen::iMul(arg0, literal2);", "auto const var1 = pwgen::iCmpLT(arg0, literal0);", "auto const var2 = pwgen::iSelect(var1, var0, arg0);"],
  "TacticValue": "0x000000000000000f",
  "StreamId": 0,
  "Metadata": ""
},{
  "Name": "conv_5 + batchnorm_5",
  "LayerType": "CaskConvolution",
  "Inputs": [
  {
    "Name": "(Unnamed Layer* 8) [Activation]_output",
    "Location": "Device",
    "Dimensions": [1,32,160,160],
    "Format/Datatype": "Channel major FP32 format where channel % 4 == 0"
  }],
  "Outputs": [
  {
    "Name": "(Unnamed Layer* 11) [Scale]_output",
    "Location": "Device",
    "Dimensions": [1,32,160,160],
    "Format/Datatype": "Channel major FP32 format where channel % 4 == 0"
  }],
  "ParameterType": "Convolution",
  "Kernel": [3,3],
  "PaddingMode": "kEXPLICIT_ROUND_DOWN",
  "PrePadding": [1,1],
  "PostPadding": [1,1],
  "Stride": [1,1],
  "Dilation": [1,1],
  "OutMaps": 32,
  "Groups": 1,
  "Weights": {"Type": "Float", "Count": 9216},
  "Bias": {"Type": "Float", "Count": 32},
  "HasSparseWeights": 0,
  "HasDynamicFilter": 0,
  "HasDynamicBias": 0,
  "HasResidual": 0,
  "ConvXAsActInputIdx": -1,
  "BiasAsActInputIdx": -1,
  "ResAsActInputIdx": -1,
  "Activation": "NONE",
  "HasBias": 1,
  "HasReLU": 0,
  "TacticName": "sm80_xmma_fprop_implicit_gemm_indexed_wo_smem_f32f32_tf32f32_f32_nhwckrsc_nhwc_tilesize128x32x64_stage1_warpsize4x1x1_g1_tensor16x8x8_alignc8",
  "TacticValue": "0x3a8712b17741b582",
  "StreamId": 0,
  "Metadata": ""
},{
  "Name": "PWN(leaky_5)",
  "LayerType": "PointWiseV2",
  "Inputs": [
  {
    "Name": "(Unnamed Layer* 11) [Scale]_output",
    "Location": "Device",
    "Dimensions": [1,32,160,160],
    "Format/Datatype": "Channel major FP32 format where channel % 4 == 0"
  }],
  "Outputs": [
  {
    "Name": "(Unnamed Layer* 16) [Concatenation]_output",
    "Location": "Device",
    "Dimensions": [1,32,160,160],
    "Format/Datatype": "Channel major FP32 format where channel % 4 == 0"
  }],
  "ParameterType": "PointWise",
  "ParameterSubType": "PointWiseExpression",
  "NbInputArgs": 1,
  "InputArgs": ["arg0"],
  "NbOutputVars": 1,
  "OutputVars": ["var2"],
  "NbParams": 0,
  "Params": [],
  "NbLiterals": 4,
  "Literals": ["0.000000e+00f", "1.000000e+00f", "1.000000e-01f", "0.000000e+00f"],
  "NbOperations": 3,
  "Operations": ["auto const var0 = pwgen::iMul(arg0, literal2);", "auto const var1 = pwgen::iCmpLT(arg0, literal0);", "auto const var2 = pwgen::iSelect(var1, var0, arg0);"],
  "TacticValue": "0x000000000000001c",
  "StreamId": 0,
  "Metadata": ""
},{
  "Name": "conv_6 + batchnorm_6",
  "LayerType": "CaskConvolution",
  "Inputs": [
  {
    "Name": "(Unnamed Layer* 16) [Concatenation]_output",
    "Location": "Device",
    "Dimensions": [1,32,160,160],
    "Format/Datatype": "Channel major FP32 format where channel % 4 == 0"
  }],
  "Outputs": [
  {
    "Name": "(Unnamed Layer* 14) [Scale]_output",
    "Location": "Device",
    "Dimensions": [1,32,160,160],
    "Format/Datatype": "Channel major FP32 format where channel % 4 == 0"
  }],
  "ParameterType": "Convolution",
  "Kernel": [3,3],
  "PaddingMode": "kEXPLICIT_ROUND_DOWN",
  "PrePadding": [1,1],
  "PostPadding": [1,1],
  "Stride": [1,1],
  "Dilation": [1,1],
  "OutMaps": 32,
  "Groups": 1,
  "Weights": {"Type": "Float", "Count": 9216},
  "Bias": {"Type": "Float", "Count": 32},
  "HasSparseWeights": 0,
  "HasDynamicFilter": 0,
  "HasDynamicBias": 0,
  "HasResidual": 0,
  "ConvXAsActInputIdx": -1,
  "BiasAsActInputIdx": -1,
  "ResAsActInputIdx": -1,
  "Activation": "NONE",
  "HasBias": 1,
  "HasReLU": 0,
  "TacticName": "sm80_xmma_fprop_implicit_gemm_indexed_wo_smem_f32f32_tf32f32_f32_nhwckrsc_nhwc_tilesize128x32x64_stage1_warpsize4x1x1_g1_tensor16x8x8_alignc8",
  "TacticValue": "0x3a8712b17741b582",
  "StreamId": 0,
  "Metadata": ""
},{
  "Name": "PWN(leaky_6)",
  "LayerType": "PointWiseV2",
  "Inputs": [
  {
    "Name": "(Unnamed Layer* 14) [Scale]_output",
    "Location": "Device",
    "Dimensions": [1,32,160,160],
    "Format/Datatype": "Channel major FP32 format where channel % 4 == 0"
  }],
  "Outputs": [
  {
    "Name": "(Unnamed Layer* 16) [Concatenation]_output",
    "Location": "Device",
    "Dimensions": [1,32,160,160],
    "Format/Datatype": "Channel major FP32 format where channel % 4 == 0"
  }],
  "ParameterType": "PointWise",
  "ParameterSubType": "PointWiseExpression",
  "NbInputArgs": 1,
  "InputArgs": ["arg0"],
  "NbOutputVars": 1,
  "OutputVars": ["var2"],
  "NbParams": 0,
  "Params": [],
  "NbLiterals": 4,
  "Literals": ["0.000000e+00f", "1.000000e+00f", "1.000000e-01f", "0.000000e+00f"],
  "NbOperations": 3,
  "Operations": ["auto const var0 = pwgen::iMul(arg0, literal2);", "auto const var1 = pwgen::iCmpLT(arg0, literal0);", "auto const var2 = pwgen::iSelect(var1, var0, arg0);"],
  "TacticValue": "0x000000000000001c",
  "StreamId": 0,
  "Metadata": ""
},{
  "Name": "conv_8 + batchnorm_8",
  "LayerType": "CaskConvolution",
  "Inputs": [
  {
    "Name": "(Unnamed Layer* 16) [Concatenation]_output",
    "Location": "Device",
    "Dimensions": [1,64,160,160],
    "Format/Datatype": "Channel major FP32 format where channel % 4 == 0"
  }],
  "Outputs": [
  {
    "Name": "(Unnamed Layer* 18) [Scale]_output",
    "Location": "Device",
    "Dimensions": [1,64,160,160],
    "Format/Datatype": "Row major linear FP32"
  }],
  "ParameterType": "Convolution",
  "Kernel": [1,1],
  "PaddingMode": "kEXPLICIT_ROUND_DOWN",
  "PrePadding": [0,0],
  "PostPadding": [0,0],
  "Stride": [1,1],
  "Dilation": [1,1],
  "OutMaps": 64,
  "Groups": 1,
  "Weights": {"Type": "Float", "Count": 4096},
  "Bias": {"Type": "Float", "Count": 64},
  "HasSparseWeights": 0,
  "HasDynamicFilter": 0,
  "HasDynamicBias": 0,
  "HasResidual": 0,
  "ConvXAsActInputIdx": -1,
  "BiasAsActInputIdx": -1,
  "ResAsActInputIdx": -1,
  "Activation": "NONE",
  "HasBias": 1,
  "HasReLU": 0,
  "TacticName": "sm80_xmma_fprop_implicit_gemm_f32f32_tf32f32_f32_nhwckrsc_nchw_tilesize128x128x16_stage4_warpsize2x2x1_g1_tensor16x8x8_t1r1s1",
  "TacticValue": "0x1d144cf9675b8d6f",
  "StreamId": 0,
  "Metadata": ""
},{
  "Name": "PWN(leaky_8)",
  "LayerType": "PointWiseV2",
  "Inputs": [
  {
    "Name": "(Unnamed Layer* 18) [Scale]_output",
    "Location": "Device",
    "Dimensions": [1,64,160,160],
    "Format/Datatype": "Row major linear FP32"
  }],
  "Outputs": [
  {
    "Name": "(Unnamed Layer* 20) [Concatenation]_output",
    "Location": "Device",
    "Dimensions": [1,64,160,160],
    "Format/Datatype": "Row major linear FP32"
  }],
  "ParameterType": "PointWise",
  "ParameterSubType": "PointWiseExpression",
  "NbInputArgs": 1,
  "InputArgs": ["arg0"],
  "NbOutputVars": 1,
  "OutputVars": ["var2"],
  "NbParams": 0,
  "Params": [],
  "NbLiterals": 4,
  "Literals": ["0.000000e+00f", "1.000000e+00f", "1.000000e-01f", "0.000000e+00f"],
  "NbOperations": 3,
  "Operations": ["auto const var0 = pwgen::iMul(arg0, literal2);", "auto const var1 = pwgen::iCmpLT(arg0, literal0);", "auto const var2 = pwgen::iSelect(var1, var0, arg0);"],
  "TacticValue": "0x0000000000000005",
  "StreamId": 0,
  "Metadata": ""
},{
  "Name": "(Unnamed Layer* 8) [Activation]_output copy",
  "LayerType": "Reformat",
  "Inputs": [
  {
    "Name": "(Unnamed Layer* 8) [Activation]_output",
    "Location": "Device",
    "Dimensions": [1,64,160,160],
    "Format/Datatype": "Channel major FP32 format where channel % 4 == 0"
  }],
  "Outputs": [
  {
    "Name": "(Unnamed Layer* 20) [Concatenation]_output",
    "Location": "Device",
    "Dimensions": [1,64,160,160],
    "Format/Datatype": "Row major linear FP32"
  }],
  "ParameterType": "Reformat",
  "Origin": "CONCAT",
  "TacticValue": "0x0000000000000000",
  "StreamId": 0,
  "Metadata": ""
},{
  "Name": "maxpool_10",
  "LayerType": "CaskPooling",
  "Inputs": [
  {
    "Name": "(Unnamed Layer* 20) [Concatenation]_output",
    "Location": "Device",
    "Dimensions": [1,128,160,160],
    "Format/Datatype": "Row major linear FP32"
  }],
  "Outputs": [
  {
    "Name": "(Unnamed Layer* 21) [Pooling]_output",
    "Location": "Device",
    "Dimensions": [1,128,80,80],
    "Format/Datatype": "Row major linear FP32"
  }],
  "ParameterType": "Pooling",
  "PoolingType": "MAX",
  "WindowSize": [2,2],
  "PaddingMode": "kEXPLICIT_ROUND_DOWN",
  "PrePadding": [0,0],
  "PostPadding": [0,0],
  "Stride": [2,2],
  "BlendFactor": 0,
  "AverageCountExcludesPadding": 1,
  "TacticName": "sm50_xmma_pooling_nd_NCDHW_kMAX_kGENERIC_3D_POOLING_MODE_kFLOAT_0",
  "TacticValue": "0x5faf4a0a8a5670ed",
  "StreamId": 0,
  "Metadata": ""
},{
  "Name": "conv_11 + batchnorm_11",
  "LayerType": "CaskConvolution",
  "Inputs": [
  {
    "Name": "(Unnamed Layer* 21) [Pooling]_output",
    "Location": "Device",
    "Dimensions": [1,128,80,80],
    "Format/Datatype": "Row major linear FP32"
  }],
  "Outputs": [
  {
    "Name": "(Unnamed Layer* 23) [Scale]_output",
    "Location": "Device",
    "Dimensions": [1,128,80,80],
    "Format/Datatype": "Row major linear FP32"
  }],
  "ParameterType": "Convolution",
  "Kernel": [3,3],
  "PaddingMode": "kEXPLICIT_ROUND_DOWN",
  "PrePadding": [1,1],
  "PostPadding": [1,1],
  "Stride": [1,1],
  "Dilation": [1,1],
  "OutMaps": 128,
  "Groups": 1,
  "Weights": {"Type": "Float", "Count": 147456},
  "Bias": {"Type": "Float", "Count": 128},
  "HasSparseWeights": 0,
  "HasDynamicFilter": 0,
  "HasDynamicBias": 0,
  "HasResidual": 0,
  "ConvXAsActInputIdx": -1,
  "BiasAsActInputIdx": -1,
  "ResAsActInputIdx": -1,
  "Activation": "NONE",
  "HasBias": 1,
  "HasReLU": 0,
  "TacticName": "sm80_xmma_fprop_wngd_f32f32_f32_f32_nchwkcrs_nchw_tilesize8x16x64x8_warpsize8x1x1_wngd2x2",
  "TacticValue": "0x0190806602534cfd",
  "StreamId": 0,
  "Metadata": ""
},{
  "Name": "PWN(leaky_11)",
  "LayerType": "PointWiseV2",
  "Inputs": [
  {
    "Name": "(Unnamed Layer* 23) [Scale]_output",
    "Location": "Device",
    "Dimensions": [1,128,80,80],
    "Format/Datatype": "Row major linear FP32"
  }],
  "Outputs": [
  {
    "Name": "(Unnamed Layer* 24) [Activation]_output",
    "Location": "Device",
    "Dimensions": [1,128,80,80],
    "Format/Datatype": "Row major linear FP32"
  }],
  "ParameterType": "PointWise",
  "ParameterSubType": "PointWiseExpression",
  "NbInputArgs": 1,
  "InputArgs": ["arg0"],
  "NbOutputVars": 1,
  "OutputVars": ["var2"],
  "NbParams": 0,
  "Params": [],
  "NbLiterals": 4,
  "Literals": ["0.000000e+00f", "1.000000e+00f", "1.000000e-01f", "0.000000e+00f"],
  "NbOperations": 3,
  "Operations": ["auto const var0 = pwgen::iMul(arg0, literal2);", "auto const var1 = pwgen::iCmpLT(arg0, literal0);", "auto const var2 = pwgen::iSelect(var1, var0, arg0);"],
  "TacticValue": "0x0000000000000009",
  "StreamId": 0,
  "Metadata": ""
},{
  "Name": "conv_13 + batchnorm_13",
  "LayerType": "CaskConvolution",
  "Inputs": [
  {
    "Name": "(Unnamed Layer* 24) [Activation]_output",
    "Location": "Device",
    "Dimensions": [1,64,80,80],
    "Format/Datatype": "Row major linear FP32"
  }],
  "Outputs": [
  {
    "Name": "(Unnamed Layer* 27) [Scale]_output",
    "Location": "Device",
    "Dimensions": [1,64,80,80],
    "Format/Datatype": "Row major linear FP32"
  }],
  "ParameterType": "Convolution",
  "Kernel": [3,3],
  "PaddingMode": "kEXPLICIT_ROUND_DOWN",
  "PrePadding": [1,1],
  "PostPadding": [1,1],
  "Stride": [1,1],
  "Dilation": [1,1],
  "OutMaps": 64,
  "Groups": 1,
  "Weights": {"Type": "Float", "Count": 36864},
  "Bias": {"Type": "Float", "Count": 64},
  "HasSparseWeights": 0,
  "HasDynamicFilter": 0,
  "HasDynamicBias": 0,
  "HasResidual": 0,
  "ConvXAsActInputIdx": -1,
  "BiasAsActInputIdx": -1,
  "ResAsActInputIdx": -1,
  "Activation": "NONE",
  "HasBias": 1,
  "HasReLU": 0,
  "TacticName": "ampere_scudnn_winograd_128x128_ldg1_ldg4_relu_tile148t_nt_v1",
  "TacticValue": "0x94119b4c514b211a",
  "StreamId": 0,
  "Metadata": ""
},{
  "Name": "PWN(leaky_13)",
  "LayerType": "PointWiseV2",
  "Inputs": [
  {
    "Name": "(Unnamed Layer* 27) [Scale]_output",
    "Location": "Device",
    "Dimensions": [1,64,80,80],
    "Format/Datatype": "Row major linear FP32"
  }],
  "Outputs": [
  {
    "Name": "(Unnamed Layer* 32) [Concatenation]_output",
    "Location": "Device",
    "Dimensions": [1,64,80,80],
    "Format/Datatype": "Row major linear FP32"
  }],
  "ParameterType": "PointWise",
  "ParameterSubType": "PointWiseExpression",
  "NbInputArgs": 1,
  "InputArgs": ["arg0"],
  "NbOutputVars": 1,
  "OutputVars": ["var2"],
  "NbParams": 0,
  "Params": [],
  "NbLiterals": 4,
  "Literals": ["0.000000e+00f", "1.000000e+00f", "1.000000e-01f", "0.000000e+00f"],
  "NbOperations": 3,
  "Operations": ["auto const var0 = pwgen::iMul(arg0, literal2);", "auto const var1 = pwgen::iCmpLT(arg0, literal0);", "auto const var2 = pwgen::iSelect(var1, var0, arg0);"],
  "TacticValue": "0x0000000000000009",
  "StreamId": 0,
  "Metadata": ""
},{
  "Name": "conv_14 + batchnorm_14",
  "LayerType": "CaskConvolution",
  "Inputs": [
  {
    "Name": "(Unnamed Layer* 32) [Concatenation]_output",
    "Location": "Device",
    "Dimensions": [1,64,80,80],
    "Format/Datatype": "Row major linear FP32"
  }],
  "Outputs": [
  {
    "Name": "(Unnamed Layer* 30) [Scale]_output",
    "Location": "Device",
    "Dimensions": [1,64,80,80],
    "Format/Datatype": "Row major linear FP32"
  }],
  "ParameterType": "Convolution",
  "Kernel": [3,3],
  "PaddingMode": "kEXPLICIT_ROUND_DOWN",
  "PrePadding": [1,1],
  "PostPadding": [1,1],
  "Stride": [1,1],
  "Dilation": [1,1],
  "OutMaps": 64,
  "Groups": 1,
  "Weights": {"Type": "Float", "Count": 36864},
  "Bias": {"Type": "Float", "Count": 64},
  "HasSparseWeights": 0,
  "HasDynamicFilter": 0,
  "HasDynamicBias": 0,
  "HasResidual": 0,
  "ConvXAsActInputIdx": -1,
  "BiasAsActInputIdx": -1,
  "ResAsActInputIdx": -1,
  "Activation": "NONE",
  "HasBias": 1,
  "HasReLU": 0,
  "TacticName": "ampere_scudnn_winograd_128x128_ldg1_ldg4_relu_tile148t_nt_v1",
  "TacticValue": "0x94119b4c514b211a",
  "StreamId": 0,
  "Metadata": ""
},{
  "Name": "PWN(leaky_14)",
  "LayerType": "PointWiseV2",
  "Inputs": [
  {
    "Name": "(Unnamed Layer* 30) [Scale]_output",
    "Location": "Device",
    "Dimensions": [1,64,80,80],
    "Format/Datatype": "Row major linear FP32"
  }],
  "Outputs": [
  {
    "Name": "(Unnamed Layer* 32) [Concatenation]_output",
    "Location": "Device",
    "Dimensions": [1,64,80,80],
    "Format/Datatype": "Row major linear FP32"
  }],
  "ParameterType": "PointWise",
  "ParameterSubType": "PointWiseExpression",
  "NbInputArgs": 1,
  "InputArgs": ["arg0"],
  "NbOutputVars": 1,
  "OutputVars": ["var2"],
  "NbParams": 0,
  "Params": [],
  "NbLiterals": 4,
  "Literals": ["0.000000e+00f", "1.000000e+00f", "1.000000e-01f", "0.000000e+00f"],
  "NbOperations": 3,
  "Operations": ["auto const var0 = pwgen::iMul(arg0, literal2);", "auto const var1 = pwgen::iCmpLT(arg0, literal0);", "auto const var2 = pwgen::iSelect(var1, var0, arg0);"],
  "TacticValue": "0x0000000000000009",
  "StreamId": 0,
  "Metadata": ""
},{
  "Name": "conv_16 + batchnorm_16",
  "LayerType": "CaskConvolution",
  "Inputs": [
  {
    "Name": "(Unnamed Layer* 32) [Concatenation]_output",
    "Location": "Device",
    "Dimensions": [1,128,80,80],
    "Format/Datatype": "Row major linear FP32"
  }],
  "Outputs": [
  {
    "Name": "(Unnamed Layer* 34) [Scale]_output",
    "Location": "Device",
    "Dimensions": [1,128,80,80],
    "Format/Datatype": "Row major linear FP32"
  }],
  "ParameterType": "Convolution",
  "Kernel": [1,1],
  "PaddingMode": "kEXPLICIT_ROUND_DOWN",
  "PrePadding": [0,0],
  "PostPadding": [0,0],
  "Stride": [1,1],
  "Dilation": [1,1],
  "OutMaps": 128,
  "Groups": 1,
  "Weights": {"Type": "Float", "Count": 16384},
  "Bias": {"Type": "Float", "Count": 128},
  "HasSparseWeights": 0,
  "HasDynamicFilter": 0,
  "HasDynamicBias": 0,
  "HasResidual": 0,
  "ConvXAsActInputIdx": -1,
  "BiasAsActInputIdx": -1,
  "ResAsActInputIdx": -1,
  "Activation": "NONE",
  "HasBias": 1,
  "HasReLU": 0,
  "TacticName": "sm80_xmma_fprop_implicit_gemm_f32f32_tf32f32_f32_nchwkrsc_nchw_tilesize128x64x16_stage2_warpsize2x2x1_g1_tensor16x8x8_simple_t1r1s1_aligna4_alignc4",
  "TacticValue": "0xe52b0ddb126aa135",
  "StreamId": 0,
  "Metadata": ""
},{
  "Name": "PWN(leaky_16)",
  "LayerType": "PointWiseV2",
  "Inputs": [
  {
    "Name": "(Unnamed Layer* 34) [Scale]_output",
    "Location": "Device",
    "Dimensions": [1,128,80,80],
    "Format/Datatype": "Row major linear FP32"
  }],
  "Outputs": [
  {
    "Name": "(Unnamed Layer* 36) [Concatenation]_output",
    "Location": "Device",
    "Dimensions": [1,128,80,80],
    "Format/Datatype": "Row major linear FP32"
  }],
  "ParameterType": "PointWise",
  "ParameterSubType": "PointWiseExpression",
  "NbInputArgs": 1,
  "InputArgs": ["arg0"],
  "NbOutputVars": 1,
  "OutputVars": ["var2"],
  "NbParams": 0,
  "Params": [],
  "NbLiterals": 4,
  "Literals": ["0.000000e+00f", "1.000000e+00f", "1.000000e-01f", "0.000000e+00f"],
  "NbOperations": 3,
  "Operations": ["auto const var0 = pwgen::iMul(arg0, literal2);", "auto const var1 = pwgen::iCmpLT(arg0, literal0);", "auto const var2 = pwgen::iSelect(var1, var0, arg0);"],
  "TacticValue": "0x0000000000000009",
  "StreamId": 0,
  "Metadata": ""
},{
  "Name": "(Unnamed Layer* 24) [Activation]_output copy",
  "LayerType": "Reformat",
  "Inputs": [
  {
    "Name": "(Unnamed Layer* 24) [Activation]_output",
    "Location": "Device",
    "Dimensions": [1,128,80,80],
    "Format/Datatype": "Row major linear FP32"
  }],
  "Outputs": [
  {
    "Name": "(Unnamed Layer* 36) [Concatenation]_output",
    "Location": "Device",
    "Dimensions": [1,128,80,80],
    "Format/Datatype": "Row major linear FP32"
  }],
  "ParameterType": "Reformat",
  "Origin": "CONCAT",
  "TacticValue": "0x0000000000000000",
  "StreamId": 0,
  "Metadata": ""
},{
  "Name": "maxpool_18",
  "LayerType": "CaskPooling",
  "Inputs": [
  {
    "Name": "(Unnamed Layer* 36) [Concatenation]_output",
    "Location": "Device",
    "Dimensions": [1,256,80,80],
    "Format/Datatype": "Row major linear FP32"
  }],
  "Outputs": [
  {
    "Name": "(Unnamed Layer* 37) [Pooling]_output",
    "Location": "Device",
    "Dimensions": [1,256,40,40],
    "Format/Datatype": "Row major linear FP32"
  }],
  "ParameterType": "Pooling",
  "PoolingType": "MAX",
  "WindowSize": [2,2],
  "PaddingMode": "kEXPLICIT_ROUND_DOWN",
  "PrePadding": [0,0],
  "PostPadding": [0,0],
  "Stride": [2,2],
  "BlendFactor": 0,
  "AverageCountExcludesPadding": 1,
  "TacticName": "sm50_xmma_pooling_nd_NCDHW_kMAX_kGENERIC_3D_POOLING_MODE_kFLOAT_0",
  "TacticValue": "0x5faf4a0a8a5670ed",
  "StreamId": 0,
  "Metadata": ""
},{
  "Name": "conv_19 + batchnorm_19",
  "LayerType": "CaskConvolution",
  "Inputs": [
  {
    "Name": "(Unnamed Layer* 37) [Pooling]_output",
    "Location": "Device",
    "Dimensions": [1,256,40,40],
    "Format/Datatype": "Row major linear FP32"
  }],
  "Outputs": [
  {
    "Name": "(Unnamed Layer* 39) [Scale]_output",
    "Location": "Device",
    "Dimensions": [1,256,40,40],
    "Format/Datatype": "Row major linear FP32"
  }],
  "ParameterType": "Convolution",
  "Kernel": [3,3],
  "PaddingMode": "kEXPLICIT_ROUND_DOWN",
  "PrePadding": [1,1],
  "PostPadding": [1,1],
  "Stride": [1,1],
  "Dilation": [1,1],
  "OutMaps": 256,
  "Groups": 1,
  "Weights": {"Type": "Float", "Count": 589824},
  "Bias": {"Type": "Float", "Count": 256},
  "HasSparseWeights": 0,
  "HasDynamicFilter": 0,
  "HasDynamicBias": 0,
  "HasResidual": 0,
  "ConvXAsActInputIdx": -1,
  "BiasAsActInputIdx": -1,
  "ResAsActInputIdx": -1,
  "Activation": "NONE",
  "HasBias": 1,
  "HasReLU": 0,
  "TacticName": "sm80_xmma_fprop_wngd_f32f32_f32_f32_nchwkcrs_nchw_tilesize8x16x64x8_warpsize8x1x1_wngd2x2",
  "TacticValue": "0x0190806602534cfd",
  "StreamId": 0,
  "Metadata": ""
},{
  "Name": "PWN(leaky_19)",
  "LayerType": "PointWiseV2",
  "Inputs": [
  {
    "Name": "(Unnamed Layer* 39) [Scale]_output",
    "Location": "Device",
    "Dimensions": [1,256,40,40],
    "Format/Datatype": "Row major linear FP32"
  }],
  "Outputs": [
  {
    "Name": "(Unnamed Layer* 40) [Activation]_output",
    "Location": "Device",
    "Dimensions": [1,256,40,40],
    "Format/Datatype": "Row major linear FP32"
  }],
  "ParameterType": "PointWise",
  "ParameterSubType": "PointWiseExpression",
  "NbInputArgs": 1,
  "InputArgs": ["arg0"],
  "NbOutputVars": 1,
  "OutputVars": ["var2"],
  "NbParams": 0,
  "Params": [],
  "NbLiterals": 4,
  "Literals": ["0.000000e+00f", "1.000000e+00f", "1.000000e-01f", "0.000000e+00f"],
  "NbOperations": 3,
  "Operations": ["auto const var0 = pwgen::iMul(arg0, literal2);", "auto const var1 = pwgen::iCmpLT(arg0, literal0);", "auto const var2 = pwgen::iSelect(var1, var0, arg0);"],
  "TacticValue": "0x0000000000000009",
  "StreamId": 0,
  "Metadata": ""
},{
  "Name": "conv_21 + batchnorm_21",
  "LayerType": "CaskConvolution",
  "Inputs": [
  {
    "Name": "(Unnamed Layer* 40) [Activation]_output",
    "Location": "Device",
    "Dimensions": [1,128,40,40],
    "Format/Datatype": "Row major linear FP32"
  }],
  "Outputs": [
  {
    "Name": "(Unnamed Layer* 43) [Scale]_output",
    "Location": "Device",
    "Dimensions": [1,128,40,40],
    "Format/Datatype": "Row major linear FP32"
  }],
  "ParameterType": "Convolution",
  "Kernel": [3,3],
  "PaddingMode": "kEXPLICIT_ROUND_DOWN",
  "PrePadding": [1,1],
  "PostPadding": [1,1],
  "Stride": [1,1],
  "Dilation": [1,1],
  "OutMaps": 128,
  "Groups": 1,
  "Weights": {"Type": "Float", "Count": 147456},
  "Bias": {"Type": "Float", "Count": 128},
  "HasSparseWeights": 0,
  "HasDynamicFilter": 0,
  "HasDynamicBias": 0,
  "HasResidual": 0,
  "ConvXAsActInputIdx": -1,
  "BiasAsActInputIdx": -1,
  "ResAsActInputIdx": -1,
  "Activation": "NONE",
  "HasBias": 1,
  "HasReLU": 0,
  "TacticName": "ampere_scudnn_winograd_128x128_ldg1_ldg4_relu_tile148t_nt_v1",
  "TacticValue": "0x94119b4c514b211a",
  "StreamId": 0,
  "Metadata": ""
},{
  "Name": "PWN(leaky_21)",
  "LayerType": "PointWiseV2",
  "Inputs": [
  {
    "Name": "(Unnamed Layer* 43) [Scale]_output",
    "Location": "Device",
    "Dimensions": [1,128,40,40],
    "Format/Datatype": "Row major linear FP32"
  }],
  "Outputs": [
  {
    "Name": "(Unnamed Layer* 48) [Concatenation]_output",
    "Location": "Device",
    "Dimensions": [1,128,40,40],
    "Format/Datatype": "Row major linear FP32"
  }],
  "ParameterType": "PointWise",
  "ParameterSubType": "PointWiseExpression",
  "NbInputArgs": 1,
  "InputArgs": ["arg0"],
  "NbOutputVars": 1,
  "OutputVars": ["var2"],
  "NbParams": 0,
  "Params": [],
  "NbLiterals": 4,
  "Literals": ["0.000000e+00f", "1.000000e+00f", "1.000000e-01f", "0.000000e+00f"],
  "NbOperations": 3,
  "Operations": ["auto const var0 = pwgen::iMul(arg0, literal2);", "auto const var1 = pwgen::iCmpLT(arg0, literal0);", "auto const var2 = pwgen::iSelect(var1, var0, arg0);"],
  "TacticValue": "0x0000000000000008",
  "StreamId": 0,
  "Metadata": ""
},{
  "Name": "conv_22 + batchnorm_22",
  "LayerType": "CaskConvolution",
  "Inputs": [
  {
    "Name": "(Unnamed Layer* 48) [Concatenation]_output",
    "Location": "Device",
    "Dimensions": [1,128,40,40],
    "Format/Datatype": "Row major linear FP32"
  }],
  "Outputs": [
  {
    "Name": "(Unnamed Layer* 46) [Scale]_output",
    "Location": "Device",
    "Dimensions": [1,128,40,40],
    "Format/Datatype": "Row major linear FP32"
  }],
  "ParameterType": "Convolution",
  "Kernel": [3,3],
  "PaddingMode": "kEXPLICIT_ROUND_DOWN",
  "PrePadding": [1,1],
  "PostPadding": [1,1],
  "Stride": [1,1],
  "Dilation": [1,1],
  "OutMaps": 128,
  "Groups": 1,
  "Weights": {"Type": "Float", "Count": 147456},
  "Bias": {"Type": "Float", "Count": 128},
  "HasSparseWeights": 0,
  "HasDynamicFilter": 0,
  "HasDynamicBias": 0,
  "HasResidual": 0,
  "ConvXAsActInputIdx": -1,
  "BiasAsActInputIdx": -1,
  "ResAsActInputIdx": -1,
  "Activation": "NONE",
  "HasBias": 1,
  "HasReLU": 0,
  "TacticName": "ampere_scudnn_winograd_128x128_ldg1_ldg4_relu_tile148t_nt_v1",
  "TacticValue": "0x94119b4c514b211a",
  "StreamId": 0,
  "Metadata": ""
},{
  "Name": "PWN(leaky_22)",
  "LayerType": "PointWiseV2",
  "Inputs": [
  {
    "Name": "(Unnamed Layer* 46) [Scale]_output",
    "Location": "Device",
    "Dimensions": [1,128,40,40],
    "Format/Datatype": "Row major linear FP32"
  }],
  "Outputs": [
  {
    "Name": "(Unnamed Layer* 48) [Concatenation]_output",
    "Location": "Device",
    "Dimensions": [1,128,40,40],
    "Format/Datatype": "Row major linear FP32"
  }],
  "ParameterType": "PointWise",
  "ParameterSubType": "PointWiseExpression",
  "NbInputArgs": 1,
  "InputArgs": ["arg0"],
  "NbOutputVars": 1,
  "OutputVars": ["var2"],
  "NbParams": 0,
  "Params": [],
  "NbLiterals": 4,
  "Literals": ["0.000000e+00f", "1.000000e+00f", "1.000000e-01f", "0.000000e+00f"],
  "NbOperations": 3,
  "Operations": ["auto const var0 = pwgen::iMul(arg0, literal2);", "auto const var1 = pwgen::iCmpLT(arg0, literal0);", "auto const var2 = pwgen::iSelect(var1, var0, arg0);"],
  "TacticValue": "0x0000000000000008",
  "StreamId": 0,
  "Metadata": ""
},{
  "Name": "conv_24 + batchnorm_24",
  "LayerType": "CaskConvolution",
  "Inputs": [
  {
    "Name": "(Unnamed Layer* 48) [Concatenation]_output",
    "Location": "Device",
    "Dimensions": [1,256,40,40],
    "Format/Datatype": "Row major linear FP32"
  }],
  "Outputs": [
  {
    "Name": "(Unnamed Layer* 50) [Scale]_output",
    "Location": "Device",
    "Dimensions": [1,256,40,40],
    "Format/Datatype": "Row major linear FP32"
  }],
  "ParameterType": "Convolution",
  "Kernel": [1,1],
  "PaddingMode": "kEXPLICIT_ROUND_DOWN",
  "PrePadding": [0,0],
  "PostPadding": [0,0],
  "Stride": [1,1],
  "Dilation": [1,1],
  "OutMaps": 256,
  "Groups": 1,
  "Weights": {"Type": "Float", "Count": 65536},
  "Bias": {"Type": "Float", "Count": 256},
  "HasSparseWeights": 0,
  "HasDynamicFilter": 0,
  "HasDynamicBias": 0,
  "HasResidual": 0,
  "ConvXAsActInputIdx": -1,
  "BiasAsActInputIdx": -1,
  "ResAsActInputIdx": -1,
  "Activation": "NONE",
  "HasBias": 1,
  "HasReLU": 0,
  "TacticName": "sm80_xmma_fprop_implicit_gemm_f32f32_tf32f32_f32_nchwkrsc_nchw_tilesize128x64x16_stage2_warpsize2x2x1_g1_tensor16x8x8_simple_t1r1s1_aligna4_alignc4",
  "TacticValue": "0xe52b0ddb126aa135",
  "StreamId": 0,
  "Metadata": ""
},{
  "Name": "PWN(leaky_24)",
  "LayerType": "PointWiseV2",
  "Inputs": [
  {
    "Name": "(Unnamed Layer* 50) [Scale]_output",
    "Location": "Device",
    "Dimensions": [1,256,40,40],
    "Format/Datatype": "Row major linear FP32"
  }],
  "Outputs": [
  {
    "Name": "(Unnamed Layer* 68) [Concatenation]_output",
    "Location": "Device",
    "Dimensions": [1,256,40,40],
    "Format/Datatype": "Row major linear FP32"
  }],
  "ParameterType": "PointWise",
  "ParameterSubType": "PointWiseExpression",
  "NbInputArgs": 1,
  "InputArgs": ["arg0"],
  "NbOutputVars": 1,
  "OutputVars": ["var2"],
  "NbParams": 0,
  "Params": [],
  "NbLiterals": 4,
  "Literals": ["0.000000e+00f", "1.000000e+00f", "1.000000e-01f", "0.000000e+00f"],
  "NbOperations": 3,
  "Operations": ["auto const var0 = pwgen::iMul(arg0, literal2);", "auto const var1 = pwgen::iCmpLT(arg0, literal0);", "auto const var2 = pwgen::iSelect(var1, var0, arg0);"],
  "TacticValue": "0x0000000000000009",
  "StreamId": 0,
  "Metadata": ""
},{
  "Name": "(Unnamed Layer* 40) [Activation]_output copy",
  "LayerType": "Reformat",
  "Inputs": [
  {
    "Name": "(Unnamed Layer* 40) [Activation]_output",
    "Location": "Device",
    "Dimensions": [1,256,40,40],
    "Format/Datatype": "Row major linear FP32"
  }],
  "Outputs": [
  {
    "Name": "(Unnamed Layer* 52) [Concatenation]_output",
    "Location": "Device",
    "Dimensions": [1,256,40,40],
    "Format/Datatype": "Channel major FP32 format where channel % 4 == 0"
  }],
  "ParameterType": "Reformat",
  "Origin": "CONCAT",
  "TacticValue": "0x0000000000000000",
  "StreamId": 0,
  "Metadata": ""
},{
  "Name": "(Unnamed Layer* 51) [Activation]_output copy",
  "LayerType": "Reformat",
  "Inputs": [
  {
    "Name": "(Unnamed Layer* 68) [Concatenation]_output",
    "Location": "Device",
    "Dimensions": [1,256,40,40],
    "Format/Datatype": "Row major linear FP32"
  }],
  "Outputs": [
  {
    "Name": "(Unnamed Layer* 52) [Concatenation]_output",
    "Location": "Device",
    "Dimensions": [1,256,40,40],
    "Format/Datatype": "Channel major FP32 format where channel % 4 == 0"
  }],
  "ParameterType": "Reformat",
  "Origin": "CONCAT",
  "TacticValue": "0x0000000000000000",
  "StreamId": 0,
  "Metadata": ""
},{
  "Name": "maxpool_26",
  "LayerType": "CaskPooling",
  "Inputs": [
  {
    "Name": "(Unnamed Layer* 52) [Concatenation]_output",
    "Location": "Device",
    "Dimensions": [1,512,40,40],
    "Format/Datatype": "Channel major FP32 format where channel % 4 == 0"
  }],
  "Outputs": [
  {
    "Name": "(Unnamed Layer* 53) [Pooling]_output",
    "Location": "Device",
    "Dimensions": [1,512,20,20],
    "Format/Datatype": "Channel major FP32 format where channel % 4 == 0"
  }],
  "ParameterType": "Pooling",
  "PoolingType": "MAX",
  "WindowSize": [2,2],
  "PaddingMode": "kEXPLICIT_ROUND_DOWN",
  "PrePadding": [0,0],
  "PostPadding": [0,0],
  "Stride": [2,2],
  "BlendFactor": 0,
  "AverageCountExcludesPadding": 1,
  "TacticName": "sm50_xmma_pooling_max_nhwc_FP32FP32_WINDOWSIZE_0_NOT_PROPAGATE_NAN_2D",
  "TacticValue": "0xaec8628e8180bced",
  "StreamId": 0,
  "Metadata": ""
},{
  "Name": "conv_27 + batchnorm_27",
  "LayerType": "CaskConvolution",
  "Inputs": [
  {
    "Name": "(Unnamed Layer* 53) [Pooling]_output",
    "Location": "Device",
    "Dimensions": [1,512,20,20],
    "Format/Datatype": "Channel major FP32 format where channel % 4 == 0"
  }],
  "Outputs": [
  {
    "Name": "(Unnamed Layer* 55) [Scale]_output",
    "Location": "Device",
    "Dimensions": [1,512,20,20],
    "Format/Datatype": "Channel major FP32 format where channel % 4 == 0"
  }],
  "ParameterType": "Convolution",
  "Kernel": [3,3],
  "PaddingMode": "kEXPLICIT_ROUND_DOWN",
  "PrePadding": [1,1],
  "PostPadding": [1,1],
  "Stride": [1,1],
  "Dilation": [1,1],
  "OutMaps": 512,
  "Groups": 1,
  "Weights": {"Type": "Float", "Count": 2359296},
  "Bias": {"Type": "Float", "Count": 512},
  "HasSparseWeights": 0,
  "HasDynamicFilter": 0,
  "HasDynamicBias": 0,
  "HasResidual": 0,
  "ConvXAsActInputIdx": -1,
  "BiasAsActInputIdx": -1,
  "ResAsActInputIdx": -1,
  "Activation": "NONE",
  "HasBias": 1,
  "HasReLU": 0,
  "TacticName": "sm80_xmma_fprop_implicit_gemm_f32f32_tf32f32_f32_nhwckrsc_nhwc_tilesize128x128x16_stage4_warpsize2x2x1_g1_tensor16x8x8_t1r3s3",
  "TacticValue": "0x999e005e3b016ea6",
  "StreamId": 0,
  "Metadata": ""
},{
  "Name": "PWN(leaky_27)",
  "LayerType": "PointWiseV2",
  "Inputs": [
  {
    "Name": "(Unnamed Layer* 55) [Scale]_output",
    "Location": "Device",
    "Dimensions": [1,512,20,20],
    "Format/Datatype": "Channel major FP32 format where channel % 4 == 0"
  }],
  "Outputs": [
  {
    "Name": "(Unnamed Layer* 56) [Activation]_output",
    "Location": "Device",
    "Dimensions": [1,512,20,20],
    "Format/Datatype": "Channel major FP32 format where channel % 4 == 0"
  }],
  "ParameterType": "PointWise",
  "ParameterSubType": "PointWiseExpression",
  "NbInputArgs": 1,
  "InputArgs": ["arg0"],
  "NbOutputVars": 1,
  "OutputVars": ["var2"],
  "NbParams": 0,
  "Params": [],
  "NbLiterals": 4,
  "Literals": ["0.000000e+00f", "1.000000e+00f", "1.000000e-01f", "0.000000e+00f"],
  "NbOperations": 3,
  "Operations": ["auto const var0 = pwgen::iMul(arg0, literal2);", "auto const var1 = pwgen::iCmpLT(arg0, literal0);", "auto const var2 = pwgen::iSelect(var1, var0, arg0);"],
  "TacticValue": "0x000000000000000d",
  "StreamId": 0,
  "Metadata": ""
},{
  "Name": "conv_28 + batchnorm_28",
  "LayerType": "CaskGemmConvolution",
  "Inputs": [
  {
    "Name": "(Unnamed Layer* 56) [Activation]_output",
    "Location": "Device",
    "Dimensions": [1,512,20,20],
    "Format/Datatype": "Channel major FP32 format where channel % 4 == 0"
  }],
  "Outputs": [
  {
    "Name": "(Unnamed Layer* 58) [Scale]_output",
    "Location": "Device",
    "Dimensions": [1,256,20,20],
    "Format/Datatype": "Channel major FP32 format where channel % 4 == 0"
  }],
  "ParameterType": "Convolution",
  "Kernel": [1,1],
  "PaddingMode": "kEXPLICIT_ROUND_DOWN",
  "PrePadding": [0,0],
  "PostPadding": [0,0],
  "Stride": [1,1],
  "Dilation": [1,1],
  "OutMaps": 256,
  "Groups": 1,
  "Weights": {"Type": "Float", "Count": 131072},
  "Bias": {"Type": "Float", "Count": 256},
  "HasSparseWeights": 0,
  "HasDynamicFilter": 0,
  "HasDynamicBias": 0,
  "HasResidual": 0,
  "ConvXAsActInputIdx": -1,
  "BiasAsActInputIdx": -1,
  "ResAsActInputIdx": -1,
  "Activation": "NONE",
  "TacticName": "sm86_xmma_gemm_f32f32_tf32f32_f32_nn_n_tilesize128x64x32_stage4_warpsize2x2x1_tensor16x8x8",
  "TacticValue": "0x00000000000202d0",
  "StreamId": 0,
  "Metadata": ""
},{
  "Name": "PWN(leaky_28)",
  "LayerType": "PointWiseV2",
  "Inputs": [
  {
    "Name": "(Unnamed Layer* 58) [Scale]_output",
    "Location": "Device",
    "Dimensions": [1,256,20,20],
    "Format/Datatype": "Channel major FP32 format where channel % 4 == 0"
  }],
  "Outputs": [
  {
    "Name": "(Unnamed Layer* 59) [Activation]_output",
    "Location": "Device",
    "Dimensions": [1,256,20,20],
    "Format/Datatype": "Channel major FP32 format where channel % 4 == 0"
  }],
  "ParameterType": "PointWise",
  "ParameterSubType": "PointWiseExpression",
  "NbInputArgs": 1,
  "InputArgs": ["arg0"],
  "NbOutputVars": 1,
  "OutputVars": ["var2"],
  "NbParams": 0,
  "Params": [],
  "NbLiterals": 4,
  "Literals": ["0.000000e+00f", "1.000000e+00f", "1.000000e-01f", "0.000000e+00f"],
  "NbOperations": 3,
  "Operations": ["auto const var0 = pwgen::iMul(arg0, literal2);", "auto const var1 = pwgen::iCmpLT(arg0, literal0);", "auto const var2 = pwgen::iSelect(var1, var0, arg0);"],
  "TacticValue": "0x0000000000000013",
  "StreamId": 0,
  "Metadata": ""
},{
  "Name": "conv_29 + batchnorm_29",
  "LayerType": "CaskConvolution",
  "Inputs": [
  {
    "Name": "(Unnamed Layer* 59) [Activation]_output",
    "Location": "Device",
    "Dimensions": [1,256,20,20],
    "Format/Datatype": "Channel major FP32 format where channel % 4 == 0"
  }],
  "Outputs": [
  {
    "Name": "(Unnamed Layer* 61) [Scale]_output",
    "Location": "Device",
    "Dimensions": [1,512,20,20],
    "Format/Datatype": "Row major linear FP32"
  }],
  "ParameterType": "Convolution",
  "Kernel": [3,3],
  "PaddingMode": "kEXPLICIT_ROUND_DOWN",
  "PrePadding": [1,1],
  "PostPadding": [1,1],
  "Stride": [1,1],
  "Dilation": [1,1],
  "OutMaps": 512,
  "Groups": 1,
  "Weights": {"Type": "Float", "Count": 1179648},
  "Bias": {"Type": "Float", "Count": 512},
  "HasSparseWeights": 0,
  "HasDynamicFilter": 0,
  "HasDynamicBias": 0,
  "HasResidual": 0,
  "ConvXAsActInputIdx": -1,
  "BiasAsActInputIdx": -1,
  "ResAsActInputIdx": -1,
  "Activation": "NONE",
  "HasBias": 1,
  "HasReLU": 0,
  "TacticName": "sm80_xmma_fprop_implicit_gemm_f32f32_tf32f32_f32_nhwckrsc_nchw_tilesize128x128x16_stage4_warpsize2x2x1_g1_tensor16x8x8_t1r3s3_alignc4",
  "TacticValue": "0x1323e48791e2f671",
  "StreamId": 0,
  "Metadata": ""
},{
  "Name": "Reformatting CopyNode for Input Tensor 0 to PWN(leaky_29)",
  "LayerType": "NoOp",
  "Inputs": [
  {
    "Name": "(Unnamed Layer* 61) [Scale]_output",
    "Location": "Device",
    "Dimensions": [1,512,20,20],
    "Format/Datatype": "Row major linear FP32"
  }],
  "Outputs": [
  {
    "Name": "Reformatted Input Tensor 0 to PWN(leaky_29)",
    "Location": "Device",
    "Dimensions": [1,512,20,20],
    "Format/Datatype": "Row major linear FP32"
  }],
  "TacticValue": "0x0000000000000000",
  "StreamId": 0,
  "Metadata": ""
},{
  "Name": "PWN(leaky_29)",
  "LayerType": "PointWiseV2",
  "Inputs": [
  {
    "Name": "Reformatted Input Tensor 0 to PWN(leaky_29)",
    "Location": "Device",
    "Dimensions": [1,512,20,20],
    "Format/Datatype": "Row major linear FP32"
  }],
  "Outputs": [
  {
    "Name": "(Unnamed Layer* 62) [Activation]_output",
    "Location": "Device",
    "Dimensions": [1,512,20,20],
    "Format/Datatype": "Row major linear FP32"
  }],
  "ParameterType": "PointWise",
  "ParameterSubType": "PointWiseExpression",
  "NbInputArgs": 1,
  "InputArgs": ["arg0"],
  "NbOutputVars": 1,
  "OutputVars": ["var2"],
  "NbParams": 0,
  "Params": [],
  "NbLiterals": 4,
  "Literals": ["0.000000e+00f", "1.000000e+00f", "1.000000e-01f", "0.000000e+00f"],
  "NbOperations": 3,
  "Operations": ["auto const var0 = pwgen::iMul(arg0, literal2);", "auto const var1 = pwgen::iCmpLT(arg0, literal0);", "auto const var2 = pwgen::iSelect(var1, var0, arg0);"],
  "TacticValue": "0x0000000000000007",
  "StreamId": 0,
  "Metadata": ""
},{
  "Name": "Reformatting CopyNode for Input Tensor 0 to conv_30",
  "LayerType": "NoOp",
  "Inputs": [
  {
    "Name": "(Unnamed Layer* 62) [Activation]_output",
    "Location": "Device",
    "Dimensions": [1,512,20,20],
    "Format/Datatype": "Row major linear FP32"
  }],
  "Outputs": [
  {
    "Name": "Reformatted Input Tensor 0 to conv_30",
    "Location": "Device",
    "Dimensions": [1,512,20,20],
    "Format/Datatype": "Row major linear FP32"
  }],
  "TacticValue": "0x0000000000000000",
  "StreamId": 0,
  "Metadata": ""
},{
  "Name": "conv_30",
  "LayerType": "CaskConvolution",
  "Inputs": [
  {
    "Name": "Reformatted Input Tensor 0 to conv_30",
    "Location": "Device",
    "Dimensions": [1,512,20,20],
    "Format/Datatype": "Row major linear FP32"
  }],
  "Outputs": [
  {
    "Name": "(Unnamed Layer* 63) [Convolution]_output",
    "Location": "Device",
    "Dimensions": [1,24,20,20],
    "Format/Datatype": "Row major linear FP32"
  }],
  "ParameterType": "Convolution",
  "Kernel": [1,1],
  "PaddingMode": "kEXPLICIT_ROUND_DOWN",
  "PrePadding": [0,0],
  "PostPadding": [0,0],
  "Stride": [1,1],
  "Dilation": [1,1],
  "OutMaps": 24,
  "Groups": 1,
  "Weights": {"Type": "Float", "Count": 12288},
  "Bias": {"Type": "Float", "Count": 24},
  "HasSparseWeights": 0,
  "HasDynamicFilter": 0,
  "HasDynamicBias": 0,
  "HasResidual": 0,
  "ConvXAsActInputIdx": -1,
  "BiasAsActInputIdx": -1,
  "ResAsActInputIdx": -1,
  "Activation": "NONE",
  "HasBias": 1,
  "HasReLU": 0,
  "TacticName": "sm50_xmma_conv_fprop_fused_conv_act_fp32_NCHW_fp32_NCHW_KCRS_fp32_fp32_fp32_Accfloat_1_1_cC1_dC1_srcVec4_fltVec1_1_TP4_TQ8_C8_R1_S1_U1_V1",
  "TacticValue": "0xadc24b6dce6a94cc",
  "StreamId": 0,
  "Metadata": ""
},{
  "Name": "conv_33 + batchnorm_33",
  "LayerType": "CaskGemmConvolution",
  "Inputs": [
  {
    "Name": "(Unnamed Layer* 59) [Activation]_output",
    "Location": "Device",
    "Dimensions": [1,256,20,20],
    "Format/Datatype": "Channel major FP32 format where channel % 4 == 0"
  }],
  "Outputs": [
  {
    "Name": "(Unnamed Layer* 65) [Scale]_output",
    "Location": "Device",
    "Dimensions": [1,128,20,20],
    "Format/Datatype": "Channel major FP32 format where channel % 4 == 0"
  }],
  "ParameterType": "Convolution",
  "Kernel": [1,1],
  "PaddingMode": "kEXPLICIT_ROUND_DOWN",
  "PrePadding": [0,0],
  "PostPadding": [0,0],
  "Stride": [1,1],
  "Dilation": [1,1],
  "OutMaps": 128,
  "Groups": 1,
  "Weights": {"Type": "Float", "Count": 32768},
  "Bias": {"Type": "Float", "Count": 128},
  "HasSparseWeights": 0,
  "HasDynamicFilter": 0,
  "HasDynamicBias": 0,
  "HasResidual": 0,
  "ConvXAsActInputIdx": -1,
  "BiasAsActInputIdx": -1,
  "ResAsActInputIdx": -1,
  "Activation": "NONE",
  "TacticName": "sm86_xmma_gemm_f32f32_tf32f32_f32_nn_n_tilesize64x64x64_stage3_warpsize2x2x1_tensor16x8x8",
  "TacticValue": "0x00000000000207c5",
  "StreamId": 0,
  "Metadata": ""
},{
  "Name": "Reformatting CopyNode for Input Tensor 0 to PWN(leaky_33)",
  "LayerType": "Reformat",
  "Inputs": [
  {
    "Name": "(Unnamed Layer* 65) [Scale]_output",
    "Location": "Device",
    "Dimensions": [1,128,20,20],
    "Format/Datatype": "Channel major FP32 format where channel % 4 == 0"
  }],
  "Outputs": [
  {
    "Name": "Reformatted Input Tensor 0 to PWN(leaky_33)",
    "Location": "Device",
    "Dimensions": [1,128,20,20],
    "Format/Datatype": "Row major linear FP32"
  }],
  "ParameterType": "Reformat",
  "Origin": "REFORMAT",
  "TacticValue": "0x00000000000003e8",
  "StreamId": 0,
  "Metadata": ""
},{
  "Name": "PWN(leaky_33)",
  "LayerType": "PointWiseV2",
  "Inputs": [
  {
    "Name": "Reformatted Input Tensor 0 to PWN(leaky_33)",
    "Location": "Device",
    "Dimensions": [1,128,20,20],
    "Format/Datatype": "Row major linear FP32"
  }],
  "Outputs": [
  {
    "Name": "(Unnamed Layer* 66) [Activation]_output",
    "Location": "Device",
    "Dimensions": [1,128,20,20],
    "Format/Datatype": "Row major linear FP32"
  }],
  "ParameterType": "PointWise",
  "ParameterSubType": "PointWiseExpression",
  "NbInputArgs": 1,
  "InputArgs": ["arg0"],
  "NbOutputVars": 1,
  "OutputVars": ["var2"],
  "NbParams": 0,
  "Params": [],
  "NbLiterals": 4,
  "Literals": ["0.000000e+00f", "1.000000e+00f", "1.000000e-01f", "0.000000e+00f"],
  "NbOperations": 3,
  "Operations": ["auto const var0 = pwgen::iMul(arg0, literal2);", "auto const var1 = pwgen::iCmpLT(arg0, literal0);", "auto const var2 = pwgen::iSelect(var1, var0, arg0);"],
  "TacticValue": "0x0000000000000004",
  "StreamId": 0,
  "Metadata": ""
},{
  "Name": "Reformatting CopyNode for Input Tensor 0 to upsample_34",
  "LayerType": "NoOp",
  "Inputs": [
  {
    "Name": "(Unnamed Layer* 66) [Activation]_output",
    "Location": "Device",
    "Dimensions": [1,128,20,20],
    "Format/Datatype": "Row major linear FP32"
  }],
  "Outputs": [
  {
    "Name": "Reformatted Input Tensor 0 to upsample_34",
    "Location": "Device",
    "Dimensions": [1,128,20,20],
    "Format/Datatype": "Row major linear FP32"
  }],
  "TacticValue": "0x0000000000000000",
  "StreamId": 0,
  "Metadata": ""
},{
  "Name": "upsample_34",
  "LayerType": "Resize",
  "Inputs": [
  {
    "Name": "Reformatted Input Tensor 0 to upsample_34",
    "Location": "Device",
    "Dimensions": [1,128,20,20],
    "Format/Datatype": "Row major linear FP32"
  }],
  "Outputs": [
  {
    "Name": "(Unnamed Layer* 67) [Resize]_output",
    "Location": "Device",
    "Dimensions": [1,128,40,40],
    "Format/Datatype": "Row major linear FP32"
  }],
  "ParameterType": "Resize",
  "ResizeMode": "NEAREST",
  "ResizeScales": [1, 1, 2, 2, 0, 0, 0, 0],
  "ExcludeOutside": 0,
  "CubicCoeff": -0.75,
  "AlignCorners": 0,
  "TacticValue": "0x0000000000000000",
  "StreamId": 0,
  "Metadata": ""
},{
  "Name": "(Unnamed Layer* 67) [Resize]_output copy",
  "LayerType": "Reformat",
  "Inputs": [
  {
    "Name": "(Unnamed Layer* 67) [Resize]_output",
    "Location": "Device",
    "Dimensions": [1,128,40,40],
    "Format/Datatype": "Row major linear FP32"
  }],
  "Outputs": [
  {
    "Name": "(Unnamed Layer* 68) [Concatenation]_output",
    "Location": "Device",
    "Dimensions": [1,128,40,40],
    "Format/Datatype": "Row major linear FP32"
  }],
  "ParameterType": "Reformat",
  "Origin": "CONCAT",
  "TacticValue": "0x00000000000003e8",
  "StreamId": 0,
  "Metadata": ""
},{
  "Name": "conv_36 + batchnorm_36",
  "LayerType": "CaskConvolution",
  "Inputs": [
  {
    "Name": "(Unnamed Layer* 68) [Concatenation]_output",
    "Location": "Device",
    "Dimensions": [1,384,40,40],
    "Format/Datatype": "Row major linear FP32"
  }],
  "Outputs": [
  {
    "Name": "(Unnamed Layer* 70) [Scale]_output",
    "Location": "Device",
    "Dimensions": [1,256,40,40],
    "Format/Datatype": "Row major linear FP32"
  }],
  "ParameterType": "Convolution",
  "Kernel": [3,3],
  "PaddingMode": "kEXPLICIT_ROUND_DOWN",
  "PrePadding": [1,1],
  "PostPadding": [1,1],
  "Stride": [1,1],
  "Dilation": [1,1],
  "OutMaps": 256,
  "Groups": 1,
  "Weights": {"Type": "Float", "Count": 884736},
  "Bias": {"Type": "Float", "Count": 256},
  "HasSparseWeights": 0,
  "HasDynamicFilter": 0,
  "HasDynamicBias": 0,
  "HasResidual": 0,
  "ConvXAsActInputIdx": -1,
  "BiasAsActInputIdx": -1,
  "ResAsActInputIdx": -1,
  "Activation": "NONE",
  "HasBias": 1,
  "HasReLU": 0,
  "TacticName": "sm80_xmma_fprop_wngd_f32f32_f32_f32_nchwkcrs_nchw_tilesize8x16x64x8_warpsize8x1x1_wngd2x2",
  "TacticValue": "0x0190806602534cfd",
  "StreamId": 0,
  "Metadata": ""
},{
  "Name": "PWN(leaky_36)",
  "LayerType": "PointWiseV2",
  "Inputs": [
  {
    "Name": "(Unnamed Layer* 70) [Scale]_output",
    "Location": "Device",
    "Dimensions": [1,256,40,40],
    "Format/Datatype": "Row major linear FP32"
  }],
  "Outputs": [
  {
    "Name": "(Unnamed Layer* 71) [Activation]_output",
    "Location": "Device",
    "Dimensions": [1,256,40,40],
    "Format/Datatype": "Row major linear FP32"
  }],
  "ParameterType": "PointWise",
  "ParameterSubType": "PointWiseExpression",
  "NbInputArgs": 1,
  "InputArgs": ["arg0"],
  "NbOutputVars": 1,
  "OutputVars": ["var2"],
  "NbParams": 0,
  "Params": [],
  "NbLiterals": 4,
  "Literals": ["0.000000e+00f", "1.000000e+00f", "1.000000e-01f", "0.000000e+00f"],
  "NbOperations": 3,
  "Operations": ["auto const var0 = pwgen::iMul(arg0, literal2);", "auto const var1 = pwgen::iCmpLT(arg0, literal0);", "auto const var2 = pwgen::iSelect(var1, var0, arg0);"],
  "TacticValue": "0x0000000000000009",
  "StreamId": 0,
  "Metadata": ""
},{
  "Name": "conv_37",
  "LayerType": "CaskConvolution",
  "Inputs": [
  {
    "Name": "(Unnamed Layer* 71) [Activation]_output",
    "Location": "Device",
    "Dimensions": [1,256,40,40],
    "Format/Datatype": "Row major linear FP32"
  }],
  "Outputs": [
  {
    "Name": "(Unnamed Layer* 72) [Convolution]_output",
    "Location": "Device",
    "Dimensions": [1,24,40,40],
    "Format/Datatype": "Row major linear FP32"
  }],
  "ParameterType": "Convolution",
  "Kernel": [1,1],
  "PaddingMode": "kEXPLICIT_ROUND_DOWN",
  "PrePadding": [0,0],
  "PostPadding": [0,0],
  "Stride": [1,1],
  "Dilation": [1,1],
  "OutMaps": 24,
  "Groups": 1,
  "Weights": {"Type": "Float", "Count": 6144},
  "Bias": {"Type": "Float", "Count": 24},
  "HasSparseWeights": 0,
  "HasDynamicFilter": 0,
  "HasDynamicBias": 0,
  "HasResidual": 0,
  "ConvXAsActInputIdx": -1,
  "BiasAsActInputIdx": -1,
  "ResAsActInputIdx": -1,
  "Activation": "NONE",
  "HasBias": 1,
  "HasReLU": 0,
  "TacticName": "sm80_xmma_fprop_implicit_gemm_f32f32_f32f32_f32_nchwkcrs_nchw_tilesize32x32x8_stage3_warpsize1x2x1_g1_ffma_simple_t1r1s1_aligna4_alignc4",
  "TacticValue": "0x90f8f2915f87ed77",
  "StreamId": 0,
  "Metadata": ""
},{
  "Name": "yolo",
  "LayerType": "PluginV2",
  "Inputs": [
  {
    "Name": "(Unnamed Layer* 63) [Convolution]_output",
    "Location": "Device",
    "Dimensions": [1,24,20,20],
    "Format/Datatype": "Row major linear FP32"
  },
  {
    "Name": "(Unnamed Layer* 72) [Convolution]_output",
    "Location": "Device",
    "Dimensions": [1,24,40,40],
    "Format/Datatype": "Row major linear FP32"
  }],
  "Outputs": [
  {
    "Name": "boxes",
    "Location": "Device",
    "Dimensions": [1,6000,4],
    "Format/Datatype": "Row major linear FP32"
  },
  {
    "Name": "scores",
    "Location": "Device",
    "Dimensions": [1,6000,1],
    "Format/Datatype": "Row major linear FP32"
  },
  {
    "Name": "classes",
    "Location": "Device",
    "Dimensions": [1,6000,1],
    "Format/Datatype": "Row major linear FP32"
  }],
  "PluginType": "YoloLayer_TRT",
  "PluginVersion": "1",
  "TacticValue": "0x0000000000000000",
  "StreamId": 0,
  "Metadata": ""
}],
"Bindings": ["input"
,"boxes"
,"scores"
,"classes"
]}
